LoraAutoSort-MockData/_FreshLab/SDXL 1.safetensors (safetensors, 57496 bytes, 2 tensors)

clip_g f4 [7, 1280]
00000000: 0000 5dbc 0090 aa3c 60a2 febc 0052 d9bd
00000010: 00fa 1d3e 00bc 853d 00d0 03bc 00c6 ad3d
00000020: 0000 aa3c 0040 25bd 00be a43d 00ee adbd
00000030: a021 e93d 008b 16be 80f5 173e 0080 a6bb
00000040: 00c0 a6bb 00e3 16be 001a b5bd 80d8 6e3d
00000050: 0010 0fbc 00b8 9dbc 0070 513d 00c4 903c
00000060: 8019 be3d 00d6 7cbd 00e0 593d 0000 ab3d
00000070: 80ec 313d 0074 193d 00e2 343d 0040 bfbc
00000080: 00e4 abbd 00a5 e9bd 007c 993d 0031 f1bc
00000090: 00f0 343d 00b9 d3bc 0080 27bc 8052 433e
000000a0: 0088 f4bb 003c 723d 003a 6cbd 00dd 0c3e
000000b0: 20b5 14bc 00e1 6ebd 0030 353c 00ce a8bd
000000c0: 80d4 e9bd 0087 d9bd 0080 97bd 00c4 69bd
000000d0: 00b4 7bbd 8069 bebd 0060 ec3c 002c 563d
000000e0: 0056 c6bd 0030 883c 004c 163c 00c0 813d
000000f0: 68d8 ffbd a0d3 97bd 0024 b23c 0080 10ba
00000100: 0022 123d 0019 87bd 0031 85bd 40e2 2c3e
00000110: 002c 503d 00d0 c3bc 002a e83c 00a0 953c
00000120: 0098 0b3e 403a f13d 00d8 c73d 00fd 08be
00000130: 0008 cebd 00e1 a1bd 00c8 3c3d 0032 eb3d
00000140: 0036 a13d 8084 e73d 0090 f03d 00de 67bd
00000150: 00c8 09bd 00f2 693d 801f dfbd 80d1 a23d
00000160: 0020 8fbc 00f8 013c 0002 a5bc 00e8 34bd
00000170: 0006 043d 0008 b13b 003e 92bd 00c2 d2bd
00000180: 0060 59be 00cd 07bd 00ab 7a3d 0026 2fbe
00000190: 20b9 973d 00d0 2c3d 00dc 9cbd 0000 6e3b
000001a0: 0086 203d 0015 9c3d 0018 e9bc 005b cabd
000001b0: 0009 0abd 2088 4cbd 0060 133c 0080 2e3c
000001c0: c019 303e 0022 3cbd 00a0 fc3d 0030 6ebd
000001d0: 00de 21bd 0040 cd3b 00b4 bdbd 00ae b43c
000001e0: 00da 40bd 0090 c63c 0090 523e 0002 a83d
000001f0: 003a 183d 0090 2fbc 00f8 653d 00cd ec3d
00000200: 00b0 ad3d 005c 7ebd 0050 b3bd 001e 40bd
00000210: 002c 133d 6090 e2bc 4003 a9bd 007a fa3d
00000220: c0c4 a63d 8061 e83d 0012 9f3b 008c efbd
00000230: 0080 31bd 00c5 3dbd 00a2 2c3d 6069 13bd
00000240: 0024 933d 0037 03be 00c7 69bd 80cd 24be
00000250: 0064 10bd 80ac 3bbe 00e8 803c 0010 a33d
00000260: 00bc 8abc 00e4 9fbd 003a 7dbd 0054 5d3d
00000270: 0000 ee39 008c 15bd 0074 0fbd 007c 81bd
00000280: 00b2 5cbd 00ba f8bd 0006 563e c03a 9a3d
00000290: 0040 00bc 00bd 343e 001c c93c 0064 9fbd
000002a0: 00a0 163e 003a 50bd 0045 1b3e 00e4 c5bd
000002b0: 0048 903d 00d0 f3bc 00a8 a9bd 00c0 a6bd
000002c0: 0030 e1bc c099 013e 2006 573e 00c0 943d
000002d0: 80ec 2dbe 4051 80be 0030 193d 0080 44bc
000002e0: 007a b63c 70db f7bc 0022 bbbd 0040 3abb
000002f0: 00b6 89bd 00b8 32be 00a0 d83b 801c 07be
00000300: 00f2 cc3d 8080 c43d 0000 16bc 0048 68bd
00000310: 00e0 7e3c 0020 ce3d b8ca e4bd 000f 9d3d
00000320: 000e 6c3d e01d 19be 30d4 173e 00f0 72bd
00000330: 008c bdbd 001c adbd 00ce 57be 00d8 033d
00000340: 200a 8e3d 0036 36bd 003c 8e3d 0096 23bd
00000350: 00de bebd 005c 97bd 00f4 0b3d 0020 8b3d
00000360: 005f 33bd 00f2 3dbe 00b4 313c 00e4 a5bd
00000370: 807a e73d c0a0 9f3d 0074 0e3d 00ab a93d
00000380: 0004 e03d 00b8 2cbd 80e3 713d 0058 36bd
00000390: 00b0 573e 0068 c53d 0094 96bc e855 12be
000003a0: 400d e33d 0063 89bd 00c8 6dbb 0054 b2bc
000003b0: 8090 4e3d 00c0 d43c 0070 283d 00b8 a7bb
000003c0: 002c bdbd 80f8 a63d 0060 a8bc 40e2 023e
000003d0: 00e2 a93d 00ac 48bd 80b3 ddbd 0063 5fbe
000003e0: 000a d1bd 8054 d73d 0096 aabd 805b b73c
000003f0: 0040 053e 00ee 0bbd 8018 fcbd 0070 48be
-0.0134887695 0.020820618 -0.031083286 -0.106113434 0.15427399 0.06529999 -0.0080451965 0.08485031
0.020751953 -0.04034424 0.08044052 -0.084926605 0.113833666 -0.14701462 0.14839745 -0.0050811768
-0.005088806 -0.14735031 -0.0884285 0.05831194 -0.008731842 -0.019252777 0.051132202 0.017671585
0.092822075 -0.061727524 0.05319214 0.083496094 0.043438435 0.03746414 0.044160843 -0.023345947
-0.08393097 -0.114084244 0.07494354 -0.02944231 0.044174194 -0.02584505 -0.010223389 0.1907444
-0.0074625015 0.05913925 -0.0576725 0.1375618 -0.009076387 -0.058320045 0.011058807 -0.082424164
-0.11417484 -0.10621452 -0.07397461 -0.057071686 -0.06145096 -0.09297466 0.02885437 0.052288055
-0.09684372 0.01662445 0.009173393 0.06335449 -0.12492448 -0.07413411 0.021745682 -0.00055122375
0.035676956 -0.06596565 -0.06503487 0.16883183 0.05082321 -0.023902893 0.02834034 0.01826477
0.13632202 0.117786884 0.097579956 -0.13377762 -0.1006012 -0.079042435 0.046089172 0.11484146
0.07871628 0.11304569 0.11746216 -0.0566082 -0.033638 0.057115555 -0.1089468 0.07950115
-0.017471313 0.007932663 -0.020142555 -0.044166565 0.032232285 0.005402565 -0.07140732 -0.10290909
-0.21228027 -0.033154488 0.061198235 -0.1710434 0.07408357 0.04219055 -0.07659149 0.0036315918
0.039190292 0.07621193 -0.028453827 -0.09880638 -0.03369999 -0.049934506 0.008995056 0.010650635
0.17197323 -0.045930862 0.12335205 -0.058151245 -0.039518356 0.006263733 -0.09262848 0.022055626
-0.0470829 0.024238586 0.20562744 0.082035065 0.037164688 -0.010715485 0.056144714 0.11562538
0.08480835 -0.062099457 -0.08755493 -0.04690361 0.035930634 -0.027656734 -0.08252573 0.12230301
0.08142996 0.11346722 0.0048544407 -0.11696625 -0.04333496 -0.046330452 0.042146683 -0.035989165
0.07184601 -0.1281395 -0.057074547 -0.16094017 -0.035251617 -0.18327522 0.015735626 0.07962036
-0.016935349 -0.078071594 -0.06182289 0.054035187 0.00045394897 -0.036510468 -0.035022736 -0.06322479
-0.05388069 -0.12144852 0.20900726 0.07530737 -0.007827759 0.17650223 0.024549484 -0.07782745
0.14709473 -0.050836563 0.1516304 -0.09662628 0.07044983 -0.029762268 -0.082839966 -0.0814209
-0.027488708 0.12656307 0.2099843 0.072631836 -0.16984749 -0.2506199 0.037399292 -0.011993408
0.022274971 -0.030256003 -0.09137344 -0.0028419495 -0.06724167 -0.17453003 0.0066108704 -0.13194466
0.10007095 0.09594822 -0.009155273 -0.05670929 0.015556335 0.10064697 -0.11171478 0.07668877
0.05763054 -0.14952803 0.14827037 -0.059310913 -0.092552185 -0.08452606 -0.21074677 0.032188416
0.06935525 -0.044485092 0.06945038 -0.039937973 -0.09319687 -0.073905945 0.034168243 0.06793213
-0.04379177 -0.18549347 0.010846138 -0.08100128 0.11302662 0.077943325 0.034778595 0.08284569
0.10938263 -0.042167664 0.05905485 -0.044517517 0.21063232 0.09638977 -0.018381119 -0.14290583
0.110865116 -0.06708336 -0.003628254 -0.02176857 0.050430775 0.025970459 0.041122437 -0.00511837
-0.09236908 0.08152866 -0.020553589 0.1278162 0.08295059 -0.048992157 -0.108252525 -0.21815109
-0.102069855 0.10514164 -0.083293915 0.022382498 0.13012695 -0.03416252 -0.123093605 -0.19573975

clip_l f4 [7, 768]
00000000: 00f1 eabd 00c6 6c3d 00e2 14bd 0062 eb3c
00000010: 30f3 e4bd 0090 f43c 0080 9bbb 00f0 63bd
00000020: 0020 edbc 0064 ea3c 205b 763d 00f6 ad3d
00000030: 807a 10be 00c2 7b3b 004a 0cbd 00e4 9a3c
00000040: 0022 b9bc 0008 693d 00ab 16bd 70cc 233d
00000050: 0018 b3bd 00ce 403d c042 1fbe 0006 6d3d
00000060: 0070 c4bc 0000 313d 0066 27bd 00b2 14bd
00000070: 0000 f13d 0078 d13d 80e9 f73d 003c a1bd
00000080: 8049 b2bc c026 22bd 002c 093d 008e 44bd
00000090: 0059 c9bd 00a3 4dbd 00ad 803c 008f 623d
000000a0: 0036 123e 008f e73c 00ca bcbc 00d0 903c
000000b0: 8076 7e3d 80cb 0c3d 00c6 b7bd 0078 bebc
000000c0: 0000 773a 002c 6abd 00b0 c33b d082 b93c
000000d0: 005a 8b3c 0088 7d3c 00f9 80bd 0000 5f3d
000000e0: c014 3c3d 00c0 e2bb 004c 56bd 00c0 8abb
000000f0: 0038 9dbc 0098 e03c 0010 193b a033 b73d
00000100: 0098 4b3d 000a 373c 30f4 ad3d 00a0 213c
00000110: 00c4 d8bb 00da 01bd 00fc 4bbd 0071 c43c
00000120: 0026 03be 00f0 d23c 00a0 a0bd 0021 1fbe
00000130: 0080 78bb 00c8 d0bc 0084 0c3d 00b0 d03c
00000140: 0076 70bd 008b d8bd 0060 37bc e009 e9bd
00000150: 00d0 1abc 0094 9b3d 00c6 a63c 006a d03d
00000160: 0080 a13b 00dc 1ebd 80e0 2bbd 0008 f33d
00000170: 00ee 313d 0056 5bbd 00d6 cfbd 405d b3bc
00000180: 003c 72bc 00af a7bd 002d b9bd 00c0 68bd
00000190: 00b6 09be 80a2 9cbd 00f8 d9bc 0084 ed3d
000001a0: 00d2 273d 40be 423d 008c 65bd 0090 ab3b
000001b0: c0d2 073c 0008 3fbd 802c df3d 40db 943d
000001c0: 00f4 18bd 80f9 aa3d 00d4 b23b 405a bebd
000001d0: 00b0 663d 002a 933d a097 d5bd 8044 963d
000001e0: 0080 f8bc 0050 323b 0008 b8bd 007c 25bd
000001f0: 004e d0bd 8025 313d c0ce 7ebc 8007 0dbe
00000200: 8058 153e 8013 8cbd 00a2 3fbe 0028 973b
00000210: 0012 b93d 0064 64bd 0091 52bd c006 173d
00000220: 002d c63d 008b 22bc 00b4 c6bd 0026 a43d
00000230: 0008 5bbd 008c 6dbd 00f4 0c3d 007c a1bc
00000240: f077 17be 004e d5bd 0046 b0bd 00e0 a13b
00000250: 00b6 aebd 00b6 e13d 0058 163b 202c 8d3d
00000260: c0d4 313d 0098 d73d 0040 06bd 0036 e2bc
00000270: 00c2 253d 4047 43be c00f 9dbd 0016 77bd
00000280: 00db e8bd 0078 d2bc 8035 32bd 5832 043e
00000290: 0048 a63b 00c0 7cbc 8021 17be 0092 e03c
000002a0: 0060 b03b 04a9 01be 006e 57bc 00a6 04be
000002b0: 003a ebbd 0024 cfbd 00e6 e33c 0040 003c
000002c0: c0d1 bfbd 00dc 71bd 00f6 60bd 00c0 6e3c
000002d0: 00cb ea3c 008c 583d 00e0 3d3c 00a1 a93d
000002e0: 0058 adbd 00f0 4bbc 804f 1d3d 001f 9f3d
000002f0: 00ac 7ebd 3064 9e3c 0046 adbc 00a8 003d
00000300: 8011 0e3d 00fa d43d 0032 213e 00f8 c93d
00000310: 001c 7cbc 0097 61bd 0076 133e 80d9 babd
00000320: 0000 5bbb 8074 343e 00d0 c3bc 00aa 503e
00000330: 00a5 29be 00c3 ae3d 00d0 aa3c 0020 f43b
00000340: c0a6 413d 003e eabd 00a0 a63d 8077 8c3d
00000350: 8052 473d 80c9 f43d 00fc c63d 0040 df3b
00000360: 00a0 253e 808f 373e 00f2 11bd 00c6 7c3d
00000370: 008b 92bd 6cc7 a33d 8038 96bd 00da aebc
00000380: 00f8 dd3d 00c0 65bb 0087 8e3d 001c cdbc
00000390: 00e6 b23c 007c 07bd 004a c9bd 00e8 adbc
000003a0: 802e 103e 00fa b83c 00da fe3c 006c 573d
000003b0: 8019 643e 00a8 7b3d 40e2 b7bd 0037 1bbd
000003c0: 002c 91bd 302f 1d3d 801b 8cbd 008c a43c
000003d0: 003a 763d 00cc e1bd 00a0 c83c 0028 503d
000003e0: 0072 133d 00cd 843d 80ce 9e3d 68ef 81bd
000003f0: 0034 8abd 00e8 ed3c 807b 1cbb 0018 3d3c
-0.11471748 0.057806015 -0.036348343 0.028733253 -0.11179197 0.02985382 -0.0047454834 -0.055648804
-0.028945923 0.028612137 0.060145497 0.084941864 -0.1410923 0.0038415194 -0.03425026 0.018907547
-0.02259922 0.056892395 -0.036784172 0.03998989 -0.08744812 0.047071457 -0.15552807 0.05786705
-0.023979187 0.04321289 -0.04086876 -0.036302567 0.11767578 0.10227966 0.121050835 -0.07872772
-0.021763563 -0.039587736 0.033489227 -0.047986984 -0.098314285 -0.050204277 0.015707493 0.055312157
0.14278412 0.02826643 -0.02304554 0.017677307 0.06212473 0.03437376 -0.089733124 -0.02325058
0.0009422302 -0.057170868 0.0059719086 0.022645384 0.017010689 0.015474319 -0.06297493 0.05444336
0.045918226 -0.006919861 -0.052318573 -0.004234314 -0.019191742 0.02741623 0.0023355484 0.089453936
0.049705505 0.011171818 0.08493841 0.009864807 -0.006615162 -0.03170204 -0.049800873 0.023979664
-0.12807465 0.025749207 -0.078430176 -0.15539932 -0.003791809 -0.025485992 0.034305573 0.025474548
-0.058706284 -0.10573387 -0.011192322 -0.11378837 -0.009449005 0.07596588 0.020358086 0.10176468
0.004928589 -0.038784027 -0.041962147 0.1186676 0.043439865 -0.053548813 -0.10148239 -0.021895051
-0.014784813 -0.081876755 -0.09041786 -0.05682373 -0.13448334 -0.07648182 -0.026607513 0.115974426
0.040971756 0.047544718 -0.056041718 0.005235672 0.008289993 -0.04663849 0.108971596 0.07268381
-0.03734207 0.083483696 0.0054574013 -0.092945576 0.05632019 0.07185745 -0.10429311 0.07337284
-0.030334473 0.0027208328 -0.08985901 -0.04040146 -0.10171127 0.043248653 -0.015552223 -0.13772392
0.14584541 -0.06839657 -0.18714142 0.0046129227 0.09036636 -0.05575943 -0.051407814 0.03687167
0.09676552 -0.0099208355 -0.09702301 0.080150604 -0.053474426 -0.057994843 0.034412384 -0.019712448
-0.14791846 -0.10415268 -0.086071014 0.004940033 -0.085308075 0.11021042 0.0022940636 0.06893182
0.043415785 0.105270386 -0.03277588 -0.02761364 0.040468216 -0.19070148 -0.0766902 -0.060323715
-0.11369896 -0.025691986 -0.043508053 0.1290983 0.005074501 -0.015426636 -0.14758873 0.027413368
0.005382538 -0.1266213 -0.013148785 -0.12953949 -0.11485672 -0.10114288 0.027819633 0.007827759
-0.093661785 -0.0590477 -0.054922104 0.014572144 0.028661251 0.05286789 0.01158905 0.082826614
-0.0846405 -0.012447357 0.038405895 0.07769585 -0.06217575 0.019334882 -0.021151543 0.031410217
0.034684658 0.10399246 0.1574173 0.09861755 -0.015387535 -0.055075645 0.14400482 -0.09123516
-0.0033416748 0.17622566 -0.023902893 0.2037735 -0.16566849 0.08533287 0.020851135 0.0074501038
0.047278166 -0.11437607 0.08135986 0.0685873 0.048662663 0.119524956 0.09716034 0.0068130493
0.16174316 0.17925835 -0.03563118 0.061712265 -0.071554184 0.07997021 -0.07334995 -0.021344185
0.10838318 -0.0035057068 0.06959343 -0.025037766 0.021838188 -0.03307724 -0.098285675 -0.02122879
0.14080238 0.022580147 0.03110981 0.05259323 0.22275352 0.061439514 -0.08978701 -0.03789425
-0.070884705 0.03837508 -0.06841183 0.020086288 0.060113907 -0.11025238 0.024490356 0.050819397
0.03599739 0.06484413 0.077542305 -0.06344491 -0.067481995 0.02904129 -0.0023877323 0.011541367
